…
'tag'], 'item_feature_dims': {'video_type': 3, 'music_type': 6, 'upload_type': 14, 'tag': 47}, 'feedback_type': ['is_click', 'long_view', 'is_like', 'is_comment', 'is_forward', 'is_follow', 'is_hate'], 'feedback_size': 7, 'feedback_negative_sample_rate': {'is_click': 0.8464776846374433, 'long_view': 0.4917230917066313, 'is_like': 0.01871086080593036, 'is_comment': 0.0025916011789654976, 'is_forward': 0.0009298479706030729, 'is_follow': 0.000979149781557057, 'is_hate': -0.0004945594728279478}}
Setup candidate item pool
Setup policy:
MERAPolicy(
  (user_encoder): BackboneUserEncoder(
    (uIDEmb): Embedding(19575, 16)
    (UFEmb_user_active_degree): Linear(in_features=9, out_features=16, bias=True)
    (UFEmb_is_live_streamer): Linear(in_features=2, out_features=16, bias=True)
    (UFEmb_is_video_author): Linear(in_features=2, out_features=16, bias=True)
    (UFEmb_follow_user_num_range): Linear(in_features=8, out_features=16, bias=True)
    (UFEmb_fans_user_num_range): Linear(in_features=9, out_features=16, bias=True)
    (UFEmb_friend_user_num_range): Linear(in_features=7, out_features=16, bias=True)
    (UFEmb_register_days_range): Linear(in_features=8, out_features=16, bias=True)
    (UFEmb_onehot_feat0): Linear(in_features=2, out_features=16, bias=True)
    (UFEmb_onehot_feat1): Linear(in_features=7, out_features=16, bias=True)
    (UFEmb_onehot_feat6): Linear(in_features=3, out_features=16, bias=True)
    (UFEmb_onehot_feat9): Linear(in_features=7, out_features=16, bias=True)
    (UFEmb_onehot_feat10): Linear(in_features=5, out_features=16, bias=True)
    (UFEmb_onehot_feat11): Linear(in_features=5, out_features=16, bias=True)
    (iIDEmb): Embedding(5660, 16)
    (IFEmb_video_type): Linear(in_features=3, out_features=16, bias=True)
    (IFEmb_music_type): Linear(in_features=6, out_features=16, bias=True)
    (IFEmb_upload_type): Linear(in_features=14, out_features=16, bias=True)
    (IFEmb_tag): Linear(in_features=47, out_features=16, bias=True)
    (feedbackEncoder): Linear(in_features=7, out_features=32, bias=True)
    (itemEmbNorm): LayerNorm((16,), eps=1e-05, elementwise_affine=True)
    (userEmbNorm): LayerNorm((16,), eps=1e-05, elementwise_affine=True)
    (itemFeatureKernel): Linear(in_features=16, out_features=32, bias=True)
    (userFeatureKernel): Linear(in_features=16, out_features=32, bias=True)
    (encDropout): Dropout(p=0.1, inplace=False)
    (encNorm): LayerNorm((32,), eps=1e-05, elementwise_affine=True)
    (posEmb): Embedding(100, 32)
    (transformer): TransformerEncoder(
      (layers): ModuleList(
        (0-2): 3 x TransformerEncoderLayer(
          (self_attn): MultiheadAttention(
            (out_proj): NonDynamicallyQuantizableLinear(in_features=64, out_features=64, bias=True)
          )
          (linear1): Linear(in_features=64, out_features=64, bias=True)
          (dropout): Dropout(p=0.1, inplace=False)
          (linear2): Linear(in_features=64, out_features=64, bias=True)
          (norm1): LayerNorm((64,), eps=1e-05, elementwise_affine=True)
          (norm2): LayerNorm((64,), eps=1e-05, elementwise_affine=True)
          (dropout1): Dropout(p=0.1, inplace=False)
          (dropout2): Dropout(p=0.1, inplace=False)
        )
      )
    )
    (sigmoid): Sigmoid()
  )
  (bce_loss): BCEWithLogitsLoss()
  (sigmoid): Sigmoid()
  (shortlist_query_layer): DNN(
    (layers): Sequential(
      (0): Linear(in_features=96, out_features=256, bias=True)
      (1): ReLU()
      (2): Dropout(p=0.1, inplace=False)
      (3): LayerNorm((256,), eps=1e-05, elementwise_affine=True)
      (4): Linear(in_features=256, out_features=64, bias=True)
      (5): ReLU()
      (6): Dropout(p=0.1, inplace=False)
      (7): LayerNorm((64,), eps=1e-05, elementwise_affine=True)
      (8): Linear(in_features=64, out_features=32, bias=True)
    )
  )
  (slot_query_layer): DNN(
    (layers): Sequential(
      (0): Linear(in_features=96, out_features=256, bias=True)
      (1): ReLU()
      (2): Dropout(p=0.1, inplace=False)
      (3): LayerNorm((256,), eps=1e-05, elementwise_affine=True)
      (4): Linear(in_features=256, out_features=64, bias=True)
      (5): ReLU()
      (6): Dropout(p=0.1, inplace=False)
      (7): LayerNorm((64,), eps=1e-05, elementwise_affine=True)
      (8): Linear(in_features=64, out_features=192, bias=True)
    )
  )
  (dump_query_layer): DNN(
    (layers): Sequential(
      (0): Linear(in_features=96, out_features=256, bias=True)
      (1): ReLU()
      (2): Dropout(p=0.1, inplace=False)
      (3): LayerNorm((256,), eps=1e-05, elementwise_affine=True)
      (4): Linear(in_features=256, out_features=64, bias=True)
      (5): ReLU()
      (6): Dropout(p=0.1, inplace=False)
      (7): LayerNorm((64,), eps=1e-05, elementwise_affine=True)
      (8): Linear(in_features=64, out_features=32, bias=True)
    )
  )
)
Setup critic:
MERACritic(
  (net): DNN(
    (layers): Sequential(
      (0): Linear(in_features=446, out_features=256, bias=True)
      (1): ReLU()
      (2): Dropout(p=0.1, inplace=False)
      (3): LayerNorm((256,), eps=1e-05, elementwise_affine=True)
      (4): Linear(in_features=256, out_features=64, bias=True)
      (5): ReLU()
      (6): Dropout(p=0.1, inplace=False)
      (7): LayerNorm((64,), eps=1e-05, elementwise_affine=True)
      (8): Linear(in_features=64, out_features=1, bias=True)
    )
  )
)
Setup buffer:
<model.buffer.MERABuffer.MERABuffer object at 0x00000182CC8630A0>
Setup agent:
<model.agent.MERA.MERA object at 0x00000182CC863280>
Namespace(actor_decay=1e-05, actor_lr=0.0001, batch_size=128, buffer_size=100000, check_episode=10, critic_decay=1e-05, critic_dropout_rate=0.1, critic_hidden_dims=[256, 64], critic_lr=0.001, cuda=0,
…
