…
Load (checkpoint) from output/ml_1m/env/user_KRMBUserResponse_lr0.0001_reg0.01_nlayer2.model.checkpoint
{'raw_data_size': 2000418, 'data_size': [1940018, 30200, 30200], 'n_user': 6040, 'n_item': 3706, 'max_seq_len': 100, 'user_features': ['gender', 'age'], 'user_feature_dims': {'gender': 2, 'age': 7}, 'item_features': ['genres'], 'item_feature_dims': {'genres': 18}, 'feedback_type': ['is_click', 'is_like', 'is_star'], 'feedback_size': 3, 'feedback_negative_sample_rate': {'is_click': 1.0, 'is_like': 0.40366715621024507, 'is_star': 0.12756269629582867}}
Setup candidate item pool
Setup policy:
MERACompletePolicy(
  (user_encoder): BackboneUserEncoder(
    (uIDEmb): Embedding(6041, 16)
    (UFEmb_gender): Linear(in_features=2, out_features=16, bias=True)
    (UFEmb_age): Linear(in_features=7, out_features=16, bias=True)
    (iIDEmb): Embedding(3707, 16)
    (IFEmb_genres): Linear(in_features=18, out_features=16, bias=True)
    (feedbackEncoder): Linear(in_features=3, out_features=32, bias=True)
    (itemEmbNorm): LayerNorm((16,), eps=1e-05, elementwise_affine=True)
    (userEmbNorm): LayerNorm((16,), eps=1e-05, elementwise_affine=True)
    (itemFeatureKernel): Linear(in_features=16, out_features=32, bias=True)
    (userFeatureKernel): Linear(in_features=16, out_features=32, bias=True)
    (encDropout): Dropout(p=0.1, inplace=False)
    (encNorm): LayerNorm((32,), eps=1e-05, elementwise_affine=True)
    (posEmb): Embedding(100, 32)
    (transformer): TransformerEncoder(
      (layers): ModuleList(
        (0-2): 3 x TransformerEncoderLayer(
          (self_attn): MultiheadAttention(
            (out_proj): NonDynamicallyQuantizableLinear(in_features=64, out_features=64, bias=True)
          )
          (linear1): Linear(in_features=64, out_features=64, bias=True)
          (dropout): Dropout(p=0.1, inplace=False)
          (linear2): Linear(in_features=64, out_features=64, bias=True)
          (norm1): LayerNorm((64,), eps=1e-05, elementwise_affine=True)
          (norm2): LayerNorm((64,), eps=1e-05, elementwise_affine=True)
          (dropout1): Dropout(p=0.1, inplace=False)
          (dropout2): Dropout(p=0.1, inplace=False)
        )
      )
    )
    (sigmoid): Sigmoid()
  )
  (bce_loss): BCEWithLogitsLoss()
  (sigmoid): Sigmoid()
  (shortlist_query_layer): DNN(
    (layers): Sequential(
      (0): Linear(in_features=96, out_features=256, bias=True)
      (1): ReLU()
      (2): Dropout(p=0.1, inplace=False)
      (3): LayerNorm((256,), eps=1e-05, elementwise_affine=True)
      (4): Linear(in_features=256, out_features=64, bias=True)
      (5): ReLU()
      (6): Dropout(p=0.1, inplace=False)
      (7): LayerNorm((64,), eps=1e-05, elementwise_affine=True)
      (8): Linear(in_features=64, out_features=32, bias=True)
    )
  )
  (slot_query_layer): DNN(
    (layers): Sequential(
      (0): Linear(in_features=96, out_features=256, bias=True)
      (1): ReLU()
      (2): Dropout(p=0.1, inplace=False)
      (3): LayerNorm((256,), eps=1e-05, elementwise_affine=True)
      (4): Linear(in_features=256, out_features=64, bias=True)
      (5): ReLU()
      (6): Dropout(p=0.1, inplace=False)
      (7): LayerNorm((64,), eps=1e-05, elementwise_affine=True)
      (8): Linear(in_features=64, out_features=640, bias=True)
    )
  )
  (dump_query_layer): DNN(
    (layers): Sequential(
      (0): Linear(in_features=96, out_features=256, bias=True)
      (1): ReLU()
      (2): Dropout(p=0.1, inplace=False)
      (3): LayerNorm((256,), eps=1e-05, elementwise_affine=True)
      (4): Linear(in_features=256, out_features=64, bias=True)
      (5): ReLU()
      (6): Dropout(p=0.1, inplace=False)
      (7): LayerNorm((64,), eps=1e-05, elementwise_affine=True)
      (8): Linear(in_features=64, out_features=32, bias=True)
    )
  )
)
Setup critic:
MERACompleteCritic(
  (pos_emb): Embedding(20, 64)
  (transformer_ord): TransformerEncoder(
    (layers): ModuleList(
      (0-1): 2 x TransformerEncoderLayer(
        (self_attn): MultiheadAttention(
          (out_proj): NonDynamicallyQuantizableLinear(in_features=64, out_features=64, bias=True)
        )
        (linear1): Linear(in_features=64, out_features=64, bias=True)
        (dropout): Dropout(p=0.1, inplace=False)
        (linear2): Linear(in_features=64, out_features=64, bias=True)
        (norm1): LayerNorm((64,), eps=1e-05, elementwise_affine=True)
        (norm2): LayerNorm((64,), eps=1e-05, elementwise_affine=True)
        (dropout1): Dropout(p=0.1, inplace=False)
        (dropout2): Dropout(p=0.1, inplace=False)
      )
    )
  )
  (q_net): DNN(
    (layers): Sequential(
      (0): Linear(in_features=160, out_features=256, bias=True)
      (1): ReLU()
      (2): Dropout(p=0.1, inplace=False)
      (3): LayerNorm((256,), eps=1e-05, elementwise_affine=True)
      (4): Linear(in_features=256, out_features=64, bias=True)
      (5): ReLU()
      (6): Dropout(p=0.1, inplace=False)
      (7): LayerNorm((64,), eps=1e-05, elementwise_affine=True)
      (8): Linear(in_features=64, out_features=1, bias=True)
    )
  )
)
Setup buffer:
<model.buffer.MERACompleteBuffer.MERACompleteBuffer object at 0x7f46f777dde0>
Setup agent:
<model.agent.MERAComplete.MERAComplete object at 0x7f46f777de70>
Namespace(seed=11, cuda=0, max_step_per_episode=20, initial_temper=20.0, uirm_log_path='output/ml_1m/env/log/user_KRMBUserResponse_lr0.0001_reg0.01_nlayer2.model.log', slate_s
…
